2. ANN Classification/model/pima_model.pt (torch, 3430 bytes, 5 tensors)

fc1.weight f4 [12, 8]
000000 33 a4 d3 3c ec 81 aa be 11 e3 ad 3d 7d 01 ac be
       0.025835132 -0.33302248 0.08490575 -0.33594885
000010 9b 5e a8 be 9f 6b 6e be 2d f5 8b 3e 80 07 c8 3d
       -0.32884678 -0.23283242 0.27335492 0.097670555
000020 4e 5b 40 3e 70 a2 11 be a8 1f a1 3e b3 97 58 3d
       0.1878483 -0.14222121 0.31469464 0.052879047
000030 6c 46 d8 3d d4 e5 c4 bb b2 60 09 40 e5 dc 78 be
       0.10560307 -0.006008843 2.1465268 -0.24303015
000040 2e a1 ae be b1 7a a6 be a0 c7 f9 3e 1a 56 b4 3d
       -0.34107345 -0.3251548 0.48785114 0.08805485
000050 24 13 0d 3e 02 06 9e bd 09 b8 8b bf 39 94 2e bc
       0.13776833 -0.0771599 -1.0915538 -0.010655456
000060 5d 1e fe bd ac d8 05 3e a4 0a af bd b8 5f 7d 3e
       -0.12408135 0.13070935 -0.085469514 0.24743545
000070 28 55 61 bc 60 f1 71 3d d7 9c 2d c0 d7 b8 99 3e
       -0.013753213 0.059068084 -2.7126977 0.30023834
000080 05 cb fa be 49 47 22 3b 8e d7 63 3e ef 36 8d be
       -0.48983017 0.0024761728 0.22250196 -0.27580974
000090 bb 1b cd 3c ab f4 fb bd dc de e7 3f 2a c9 95 be
       0.025037637 -0.12302526 1.8114886 -0.29255038
0000a0 ac e8 42 bd d4 af ae be 87 cd ac 3e fc be 5d bd
       -0.047585174 -0.3411852 0.33750555 -0.054137215
0000b0 11 f9 b2 bf 5c 39 07 3f 96 97 27 3f 93 a1 7d be
       -1.3982259 0.528219 0.65465677 -0.24768667
0000c0 87 1c cc be 3f 47 4d 3e cb fc f7 3d ef 24 24 3e
       -0.39865515 0.2004671 0.12108763 0.16029714
0000d0 2f bb c5 bc fe 48 8b 3e 5e c0 cd 3f a1 54 aa be
       -0.024137108 0.27204126 1.6074331 -0.33267692
0000e0 69 8b 31 3c c2 82 40 be 86 c8 8c bd 41 f0 2c be
       0.010836461 -0.1879988 -0.06874184 -0.16888525
0000f0 0b e1 cd bd fb 09 99 be 22 d5 ab 3d a3 47 85 be
       -0.10052689 -0.29890427 0.08390261 -0.26031217
000100 7e 92 4a 3f 8f ac dd bc 09 c7 25 3e 8e 16 f7 3d
       0.7912978 -0.027059821 0.16189207 0.12064849
000110 3a 1e be be df 08 37 3e 98 06 93 3f 9a 13 ec 3b
       -0.37132436 0.17874478 1.1486387 0.007204485
000120 9a a5 98 3e 8d 3d c0 bd e1 e8 9b 3e 1b 2a 9e 3e
       0.29813844 -0.0938674 0.3045111 0.308915
000130 3c c0 8c be e7 68 22 be 99 8e 00 c0 57 f0 92 3e
       -0.27490413 -0.1586033 -2.0087035 0.2869899
000140 61 bd 8f be 62 39 23 3d c7 a6 1c 3e d2 d7 ad 3d
       -0.28074172 0.039849646 0.15297996 0.0848843
000150 5a 08 a2 bb 06 da c8 3d 0e 3b ae bf 44 26 ca be
       -0.0049448432 0.0980721 -1.3611772 -0.3948232
000160 42 96 bf 3e 05 44 1d bd 23 ca 57 be 60 c4 33 be
       0.37419325 -0.038394947 -0.21073203 -0.1755538
000170 69 f3 fd 3b 32 d0 c8 3e bd fe c7 be a0 b3 ac be
       0.007749964 0.3922134 -0.39061537 -0.33730793

fc1.bias f4 [12]
000000 42 cb ad 3e 4c 6d a3 bf cc 39 b8 3f a0 dc ef 3f
       0.33944136 -1.276773 1.4392638 1.8739204
000010 29 14 5d 3f 16 bf 44 3f 03 f6 1e c0 dc 39 8c be
       0.86358887 0.76854074 -2.4837654 -0.27387893
000020 d5 d3 9e bf 8b e4 a7 3f fb f1 df 3f b9 e8 32 bf
       -1.2408396 1.3116621 1.7495722 -0.69886357

fc2.weight f4 [8, 12]
000000 f1 a3 24 3e 16 e1 1a 3f 60 7b 13 c0 b2 a2 6d be
       0.16078164 0.60499704 -2.3044052 -0.23206595
000010 27 cf 01 3f d3 57 b0 3e a9 e4 bb bd 7f b2 9c bd
       0.50706714 0.34442005 -0.09174473 -0.07651233
000020 75 4a af 3e 1b b2 c7 3c af d4 ee bd 17 ce 5a 3c
       0.34236494 0.02437692 -0.1166166 0.0133548
000030 ea 62 5e be 87 7f 89 3e f6 69 d4 3e d2 7a 1e 3e
       -0.2171742 0.26855108 0.41487092 0.1547654
000040 08 0a c6 bb da df a6 3e ca 63 52 be bb c2 7d bc
       -0.0060436763 0.3259266 -0.20545879 -0.015488322
000050 e9 29 f0 be b3 63 86 3e 34 aa 01 3f 51 6b 90 3e
       -0.46906975 0.2624794 0.50650334 0.28206876
000060 e0 14 30 3e ae bd 44 be 37 c2 2a bd 6f d7 37 3e
       0.17195463 -0.19212982 -0.041689124 0.17953275
000070 c2 5a 98 3e d6 8c 56 3f 85 39 4c bd b1 5b 8f 3e
       0.29756743 0.8380865 -0.049859542 0.27999642
000080 5d 81 9d be 55 06 66 3e ff 9f 09 3e a1 63 95 bf
       -0.3076276 0.22463353 0.1343994 -1.1671029
000090 55 63 23 bd f1 f2 a4 bf aa f6 1b bf 0a e8 e7 bd
       -0.039889652 -1.288664 -0.60923254 -0.11323555
0000a0 d6 2a bf 3e c0 7b d5 3f cc e3 c7 be 7c b0 93 3d
       0.3733737 1.667839 -0.39040983 0.07211396
0000b0 1f 89 26 3e 73 d5 96 3e 10 64 36 3e 38 34 20 3d
       0.16263245 0.29459724 0.17811608 0.0391123
0000c0 da b5 79 3e 00 e4 21 3e 8a 85 49 bd 10 24 1d bd
       0.24385777 0.15809631 -0.04919962 -0.03836447
0000d0 a8 ed 55 be 27 3c 29 c0 4e 47 98 3e 9f 2c 02 3e
       -0.2089144 -2.6442964 0.297419 0.12712334
0000e0 c2 d5 16 3c bf b0 14 be c5 ef 22 bd e4 fe e5 3f
       0.009206237 -0.14520548 -0.039779443 1.7968411
0000f0 e9 4f 27 be 52 89 c8 3c 67 7a 9e 3e 2a c2 b5 3e
       -0.16339077 0.024479542 0.3095276 0.35499698
000100 38 4b 96 be 3b 7d 67 bf 70 fe 5c be 4b 80 2c bd
       -0.29354262 -0.9042546 -0.21581435 -0.042114537
000110 b6 dd e3 bd e4 55 d4 3e c2 f3 ea be 49 73 f6 3f
       -0.111262724 0.4147178 -0.45889097 1.9253932
000120 8f d8 31 3e b2 76 a6 3e 06 0f d9 3d 0c 27 81 be
       0.17367767 0.32512432 0.105985686 -0.25225103
000130 65 0f 50 bf 0c 58 79 3f f8 45 eb be 4f 1a e7 bc
       -0.8127349 0.97399974 -0.4595182 -0.028210787
000140 c3 10 a4 bd 81 a4 1a 3e 8c 08 5d bf 64 4c 64 be
       -0.080110095 0.15101816 -0.86341166 -0.22294766
000150 f3 36 01 3e fa f2 d0 3d 31 ed f9 3d 38 a5 13 bf
       0.12618618 0.10202594 0.12203444 -0.5767398
000160 59 9d 64 bf d4 4c 96 3f 57 a9 1f be 8b 9e 2e 3e
       -0.89302593 1.1742196 -0.15591942 0.17052667
000170 16 83 39 bd ee 41 6b 3e c4 92 42 bf 40 01 62 3e
       -0.04529103 0.22974369 -0.76005197 0.2207079

fc2.bias f4 [8]
000000 28 ee 85 bd 81 fe f4 3f e8 3b fb 3f ff d8 8d 3e
       -0.06539565 1.9140168 1.9627657 0.27704617
000010 b0 45 1b c0 c5 83 80 bf fc 0e 92 be 28 62 1c bf
       -2.4261284 -1.0040213 -0.28527057 -0.61087275

fc3.weight f4 [1, 8]
000000 58 19 ee 3f a3 cf 9e be 5a aa fb be 83 72 3e c0
       1.8601484 -0.3101779 -0.49153405 -2.9757392
000010 74 78 5c 3f 05 c8 bd 3e 62 00 c2 3f d9 95 be 3f
       0.86121297 0.37066665 1.5156367 1.488948
