2. ANN Classification/model/pima_model_mardi.pt (torch, 3490 bytes, 5 tensors)

fc1.weight f4 [12, 8]
00000000: e24c 01be afea 7ebe 09ce e53e 28c1 873e
00000010: 9273 08be 4f1c b2be 350b 7b3c 112d eebe
00000020: 5471 e5bd 0695 13be f786 98be d453 5a3e
00000030: 1bb6 9bbe 32ee a43e 36aa ecbd dfe1 4bbe
00000040: 4215 fc3f cac9 21be e73d 603e 5ced 9ebe
00000050: 81cb 77be d093 113e 2b6e 4bc0 a633 20bf
00000060: 2a8e 59bf 6e34 4c3e b333 00be 09eb 1abf
00000070: f10b 833d 7d13 eebc 5594 32c0 ce83 773e
00000080: 073e 9a3f af52 87bd c490 e3bd 3265 413e
00000090: d361 58bf 4a5d b53e 6717 a3bf eb53 d53e
000000a0: 8f7a 03bd 72f0 b4be facf 823e 87dc 38be
000000b0: 3d01 75be 9f81 013e 5001 cbbd bbfd aabd
000000c0: 4b04 d33e d52e 063d a06d f63d 5cf9 babd
000000d0: c80e 8a3e 818c d0bd 5e94 8f3f 0fb0 8dbf
000000e0: 515a 523f ec6e 03bf 6d77 b23e b4b6 dfbe
000000f0: 74af 30be 3912 033e d997 45c0 3cab 8d3e
00000100: d859 353b 4022 c33d b0e2 02be f9b3 f8bd
00000110: 1c88 8a3e 5da9 2a3e 21a9 5140 fbfc 933d
00000120: a198 1abf 962c 7f3e 9054 4f3e 1a05 0a3d
00000130: bb06 88bd 3b41 c03c e145 4b40 f518 2cbf
00000140: 7617 363e 9740 5fbe 3483 3dbe b5f2 0c3e
00000150: 292b cdbd c9a0 053e 6c40 2fbe d4a2 903d
00000160: 5c20 84bf 101e fabd 3fe1 a5bc f00f 0f3f
00000170: efe5 26be 65d4 dfbd 8121 38be 7ffc d3be
-0.12626985 -0.24894212 0.44883755 0.26514554 -0.13325337 -0.34787223 0.015322496 -0.46518758
-0.11203256 -0.14412317 -0.2979047 0.2132104 -0.30412373 0.3221298 -0.11555903 -0.19910382
1.9693987 -0.15799633 0.21898614 -0.31040466 -0.24198724 0.14216542 -3.178599 -0.6257881
-0.8498255 0.19941875 -0.12519722 -0.60514885 0.06398762 -0.029062027 -2.7903035 0.24171373
1.2050179 -0.066075675 -0.11111596 0.18886259 -0.8452427 0.35422736 -1.2741517 0.41665587
-0.032099303 -0.35339695 0.255493 -0.18052875 -0.23926254 0.12647103 -0.0991236 -0.083491765
0.41214213 0.032759506 0.12032628 -0.09129593 0.26964402 -0.10183049 1.1217153 -1.1069354
0.8216906 -0.5134113 0.3485674 -0.4369408 -0.1725443 0.1279992 -3.087393 0.27669704
0.002767196 0.09528017 -0.12781787 -0.12143702 0.27056968 0.1666617 3.2759478 0.072259866
-0.60389143 0.24919352 0.20247102 0.03369627 -0.06641909 0.023468604 3.17614 -0.6722558
0.17782387 -0.21801983 -0.18507081 0.1376446 -0.10017998 0.13049616 -0.17114419 0.07062307
-1.0322375 -0.12212765 -0.020249007 0.55883694 -0.1629865 -0.10929183 -0.1798153 -0.41403577

fc1.bias f4 [12]
00000000: b5b4 3bbe 8a23 62bc 98bf 7abd cc3d 2440
00000010: 4f73 e5bf b0bb f7bd 89b0 4f40 42c6 1bbe
00000020: 39ea 50c0 3f32 583e 9a15 a3be b789 b5be
-0.18330653 -0.0138024185 -0.061217874 2.5662718 -1.7925814 -0.120963454 3.2451499 -0.15212348
-3.2642958 0.21112917 -0.31852418 -0.3545663

fc2.weight f4 [8, 12]
00000000: 95b0 fa3d af7b 1dbd fc4b 2abe dace a9be
00000010: acaa 3cbe ee81 94bd 0116 8dbd fadf 2abe
00000020: e9b1 5cbd 6b9a 25bd c4c5 21be 5707 52be
00000030: cd38 aebe 3fac 44be c5fd 02bf 1468 46bf
00000040: 3774 e13d a5e2 ab3d 16ca 11be ee24 74bf
00000050: 14d7 b9be 79c4 0bbf 4edb b53d 2293 423e
00000060: a7c1 b43e fc77 b53c 1e4b e1bc e2fc 563e
00000070: bbdf 9d3d c141 9d3e d604 bfbe 6159 5b40
00000080: 3195 33bc 7ea3 e7be 1e30 92be 4780 9f3d
00000090: 91da b1bf 1c48 343e 1867 d2bc 214c 913e
000000a0: c5a5 4e3e 52b6 c5bc b8ec 4fbe 54f5 69c0
000000b0: 36f7 2c3e 4d36 893e 45fb 133e 6fbd bb3f
000000c0: 8f65 64bf 09c5 c43d c483 0540 0267 9abe
000000d0: 0e3a 2b3e 97bd 083e bacc 03be 503a 92bf
000000e0: 55fc 9b3e af51 023e 89d1 1b3e de97 b53f
000000f0: 7313 fb3f 9312 d8bd 28c9 203f 9374 0ebe
00000100: 799b 24be 3bfd 9e39 a88e cf3d de03 8540
00000110: 0ba3 683d c70c a43d 0754 cf3d fb5e b0bf
00000120: 287e b13d 8f2b 393e 8fdb 8f3f 5232 9a3e
00000130: 3d4b b3be 789b 32be a9fc 8bbf c1ad d33f
00000140: 3bbd 183d d4f4 54bf 9d9a 1b3e b1fb 353d
00000150: b69e 7dbe d65f c43c 0e06 b1bd 1ad5 e0bc
00000160: cf87 2dbd 6792 60bc 5a43 23be 3683 313e
00000170: 5156 0bbd 0205 a9be 3d9c 5a3e 7514 48bd
0.122407116 -0.038448032 -0.16630548 -0.33165628 -0.18424481 -0.072513446 -0.068889625 -0.16687003
-0.053880606 -0.040430468 -0.15798098 -0.20510612 -0.3402771 -0.19206332 -0.5116847 -0.7750256
0.11008494 0.083928384 -0.14237246 -0.9536885 -0.36296904 -0.5459667 0.0887972 0.19001439
0.35303995 0.02215194 -0.027501639 0.20994905 0.07708689 0.3071423 -0.37308377 3.4273303
-0.010960863 -0.45241922 -0.28552336 0.07788139 -1.3894826 0.17605633 -0.025683925 0.28378394
0.20180424 -0.024134789 -0.20305145 -3.6555986 0.16891178 0.2679924 0.1445132 1.4667186
-0.89217466 0.09607894 2.0861673 -0.30156714 0.16721365 0.13353573 -0.12871066 -1.1424046
0.30465952 0.12726472 0.1521665 1.4186971 1.961531 -0.10550418 0.6280694 -0.13911657
-0.16074933 0.0003032478 0.101346314 4.156722 0.056796115 0.080102496 0.10123449 -1.3778986
0.086666405 0.18083023 1.1238879 0.30116516 -0.3501834 -0.17442119 -1.0936481 1.65374
0.03728984 -0.8318608 0.15195699 0.044429485 -0.24767575 0.02397148 -0.08643733 -0.027445365
-0.042365845 -0.01370678 -0.15943661 0.17335209 -0.034017865 -0.33011633 0.21348663 -0.048847634

fc2.bias f4 [8]
00000000: 57b5 e1bd c22e fbbe e0a7 12bf 4c04 64c0
00000010: c750 7dc0 1b8b 7e40 75c4 913e a205 043e
-0.11020916 -0.4905911 -0.57287407 -3.5627623 -3.9580553 3.9772403 0.28470197 0.12892774

fc3.weight f4 [1, 8]
00000000: 8186 e73d e452 8740 a21f 76be 8bf6 a43e
00000010: ccb8 383f 75bd 00bf 39a0 8ec0 2c6e 853e
0.113049515 4.2288685 -0.24035504 0.32219347 0.7215698 -0.5028909 -4.4570584 0.26060617
